results/my_model/BetaTCVAE_training_2024-02-26_17-12-57/final_model/model.pt (torch, 561876 bytes, 43 tensors)

decoder.linear.weight f4 [2048, 8]
-0.125132 -0.32604146 -0.1618416 -0.06923788 0.26823947 -0.051268283 0.08345497 0.08040259
0.10096107 0.11718568 -0.19528157 -0.27803987 -0.20623465 -0.104078144 0.06387971 0.11238009
0.27108127 -0.30716714 -0.10104813 0.2731691 0.24038708 0.07478894 0.32627487 -0.03355634
-0.10220604 -0.028717022 -0.22808029 0.34894174 0.042862512 0.118349135 -0.12618648 -0.32809603
-0.15941197 0.32273415 0.1418825 0.3655459 -0.07137813 0.14146397 0.020406662 -0.15221117
0.17848049 0.24076751 0.08775818 -0.10312048 0.3310537 0.12926859 0.3088494 -0.024312094
0.32283527 0.27663955 0.03153194 0.35028297 0.031941466 0.36342192 0.2524604 -0.1649777
0.14163561 0.06317454 0.2099935 -0.23425603 0.111522466 -0.08039079 -0.3336221 -0.13390374
-0.12772015 0.10871121 0.26867443 -0.16851555 0.2997063 -0.22996923 0.2583394 -0.15407296
0.25884095 0.28866935 0.28071773 0.25876665 0.21369085 0.15575437 -0.30547655 0.0068393843
-0.3200326 0.20746942 0.23729198 0.12839167 -0.0067903562 0.041652564 0.31086242 -0.2841225
0.017473064 0.0030596505 0.02707449 -0.05893828 -0.27465588 0.199027 0.20186037 -0.32936132
0.24472499 0.22378772 0.012766583 -0.17366983 0.09993179 -0.075302176 0.30161104 0.016771058
0.22995536 -0.1822724 0.3300877 0.18601754 0.04477578 0.052152883 0.20725109 0.17892773
-0.16456953 0.1984183 0.12437801 0.084068455 0.32120678 -0.20771909 0.16114338 0.046950355
0.31003067 0.04516095 -0.17781328 0.11265113 -0.16368128 0.07463331 0.19773515 -0.22216114
0.17147122 0.027487386 0.09041477 -0.096851274 0.25995794 0.062477767 -0.04492227 -0.18478991
0.025278637 0.2018086 -0.17673363 -0.30077302 -0.0049061556 0.28016165 0.22087619 0.3425468
0.16282779 -0.24318436 -0.29662168 -0.02023648 0.11481701 0.06382831 0.15932485 0.28580675
-0.16930746 -0.12953937 0.0681891 0.20872378 -0.068054356 -0.10692372 -0.21618594 0.16147794
0.09756568 -0.09366099 0.015679937 0.32670325 0.29324144 0.106229156 -0.09785159 -0.20404947
0.051665574 0.11445582 0.20967506 -0.35495672 0.048532836 0.05304305 -0.06750322 -0.2234555
-0.026622072 -0.28625402 0.028578904 -0.34165826 -0.116425954 0.006612699 0.15974201 0.11895036
0.096973315 -0.030185433 -0.26523945 -0.096121624 0.0596681 -0.0690698 -0.038004115 -0.22455566
0.29599768 0.27702922 -0.32254043 0.32506776 0.31328508 0.08174089 -0.06495805 0.43829086
-0.17089084 0.37060347 -0.06881605 0.1533758 -0.060996488 -0.018524116 -0.09736084 -0.2871028
0.28135696 -0.28477332 -0.3104626 0.17420697 -0.008185447 0.26167756 -0.20341432 -0.11207702
-0.114150494 -0.38980356 0.020399636 -0.21351221 0.24575195 -0.02621736 0.26443505 0.0715392
0.018376619 0.04458651 -0.2079571 0.23594236 0.12356717 0.12668729 0.25883567 0.18293701
-0.18899827 -0.041667845 0.234838 0.27779895 -0.15340312 -0.0049788724 0.016965453 -0.11124168
0.1491989 0.08452085 0.15136382 -0.22123283 -0.34812564 -0.18779548 -0.12213374 -0.32542783
-0.068817735 0.05325902 0.2331056 -0.030405568 0.19233176 0.15792622 0.22666058 0.109282225
00000000: 9a22 00be e8ee a6be ceb9 25be 97cc 8dbd
00000010: af56 893e b1fe 51bd 70ea aa3d 1daa a43d
00000020: adc4 ce3d 0cff ef3d e4f7 47be 3e5b 8ebe
00000030: 2d2f 53be ec26 d5bd 5ed3 823d 8827 e63d
00000040: 2acb 8a3e 0345 9dbe 52f2 cebd d2dc 8b3e
00000050: 0828 763e f22a 993d 800d a73e 5f72 09bd
00000060: 6651 d1bd f63f ebbc e18d 69be 7ea8 b23e
00000070: 9a90 2f3d 0861 f23d 0737 01be 34fc a7be
00000080: e43c 23be 693d a53e a549 113e d528 bb3e
00000090: b22e 92bd eedb 103e df2b a73c 3fdd 1bbe
000000a0: 97c3 363e c28b 763e 90ba b33d d530 d3bd
000000b0: df7f a93e fc5e 043e 8221 9e3e 282a c7bc
000000c0: aa4a a53e b3a3 8d3e a327 013d 4a58 b33e
000000d0: 0ed5 023d 7012 ba3e 7d42 813e eaef 28be
000000e0: ed08 113e a761 813d 8908 573e d0e0 6fbe
000000f0: e465 e43d eda3 a4bd 84d0 aabe 101e 09be
00000100: 12c9 02be fca3 de3d b28f 893e 578f 2cbe
00000110: 1b73 993e 0e7d 6bbe 1045 843e 4dc5 1dbe
00000120: cd86 843e 78cc 933e 3cba 8f3e 107d 843e
00000130: c6d1 5a3e 137e 1f3e 6c67 9cbe ea1c e03b
00000140: 50db a3be dd72 543e abfc 723e 1b79 033e
00000150: a381 debb e19b 2a3d 5c29 9f3e 8178 91be
00000160: ac23 8f3c 6b84 483b 52cb dd3c 4469 71bd
00000170: b29f 8cbe bccd 4b3e 7cb4 4e3e 0ca2 a8be
00000180: 3099 7a3e 9c28 653e ee2a 513c 81d6 31be
00000190: 0aa9 cc3d 0738 9abd c36c 9a3e 7563 893c
000001a0: 6b79 6b3e 9ea5 3abe 4101 a93e 627b 3e3e
000001b0: cf66 373d 439e 553d a139 543e d538 373e
000001c0: ea84 28be 2b2e 4b3e e6b9 fe3d 152c ac3d
000001d0: 3775 a43e 50b4 54be c502 253e 044f 403d
000001e0: 57bc 9e3e b0fa 383d af14 36be a3b5 e63d
000001f0: 119c 27be 59d9 983d 157b 4a3e 367e 63be
00000200: 2796 2f3e 3a2d e13c 612b b93d f659 c6bd
00000210: 3519 853e b0e8 7f3d 6a00 38bd 9139 3dbe
00000220: 2515 cf3c eaa6 4e3e a9f9 34be ecfe 99be
00000230: d1c3 a0bb 5971 8f3e 5e2d 623e 4b62 af3e
00000240: 54bc 263e 5205 79be ccde 97be f9c6 a5bc
00000250: 2e25 eb3d 6bb8 823d 0e26 233e 4355 923e
00000260: ef5e 2dbe f8a5 04be baa6 8b3d b0bb 553e
00000270: 1560 8bbd d3fa dabd d95f 5dbe 795a 253e
00000280: 84d0 c73d 55d1 bfbd 3673 803c a645 a73e
00000290: be23 963e ac8e d93d 6a66 c8bd 58f2 50be
000002a0: 489f 533d d067 ea3d 0fb5 563e e3bc b5be
000002b0: 5eca 463d ab43 593d 213f 8abd 85d1 64be
000002c0: 8816 dabc e38f 92be 4e1e ea3c d5ed aebe
000002d0: bb70 eebd 57af d83b 6993 233e 3f9c f33d
000002e0: f299 c63d 7147 f7bc 77cd 87be 6adb c4bd
000002f0: 8a66 743d 7874 8dbd 34aa 1bbd ebf1 65be
00000300: 028d 973e c6d6 8d3e 0524 a5be 486f a63e
00000310: e766 a03e c567 a73d ba08 85bd a967 e03e
00000320: 02fe 2ebe bdbf bd3e 6eef 8cbd 8c0e 1d3e
00000330: 74d7 79bd e3bf 97bc 1f65 c7bd 23ff 92be
00000340: 050e 903e cfcd 91be f4f4 9ebe 5063 323e
00000350: 411c 06bc 9afa 853e d84b 50be a388 e5bd
00000360: bcc7 e9bd 5594 c7be 231d a73c f2a2 5abe
00000370: 66a6 7b3e cac5 d6bc 0864 873e 2583 923d
00000380: 908a 963c 58a0 363d b5f2 54be e09a 713e
00000390: c910 fd3d 50ba 013e 1c86 843e d753 3b3e
000003a0: c388 41be e7ab 2abd 5f79 703e aa3b 8e3e
000003b0: b515 1dbe cf25 a3bb 22fb 8a3c aed2 e3bd
000003c0: 99c7 183e 4419 ad3d 1eff 1a3e dc8a 62be
000003d0: 863d b2be 754d 40be 4121 fabd 7a9e a6be
000003e0: 50f0 8cbd 2126 5a3d 3cb3 6e3e 1915 f9bc
000003f0: 9ef2 443e 69b7 213e b619 683e 5ccf df3d

decoder.linear.bias f4 [2048]
-0.08956701 0.28329524 -0.03297883 -0.16731909 0.026925422 -0.06832979 -0.08520179 -0.38170204
-0.11382766 0.3521076 -0.12925678 -0.272275 -0.31742206 -0.014079775 -0.22680765 -0.3286075
0.2990545 -0.2792735 -0.32724378 0.28807682 0.14327 -0.3121553 0.031073987 -0.43344715
-0.1462911 -0.14261416 -0.22671078 0.14178121 -0.06336732 -0.06444579 0.3364327 -0.13045023
-0.33339417 -0.24767435 -0.038289227 0.022589153 0.18333293 -0.29798174 0.22315995 0.08171353
0.116982155 -0.0980705 -0.25847933 0.30412692 -0.20824602 0.25335023 0.217636 0.17375484
0.041938238 0.27283314 0.254144 0.24705783 -0.25166568 0.16923681 0.21617359 -0.3236626
0.067615844 0.11959649 -0.08575043 -0.22127582 -0.31245595 -0.06776559 0.22834377 0.1419306
-0.34788668 -0.052004028 0.31892374 0.025585791 0.0992757 -0.04151558 -0.36744368 -0.26613095
0.3923647 -0.18509144 -0.21650672 -0.35712242 -0.09264369 -0.30862117 0.09647783 0.2708291
0.39261773 0.21344143 -0.14556228 -0.1011672 0.03669038 -0.2634856 0.31730318 0.046671085
-0.45861754 -0.20202622 -0.11541811 0.2259098 -0.32842055 -0.06405544 0.11686639 -0.08288555
-0.13200817 -0.35674745 -0.065693595 0.25860026 -0.2129866 0.1892687 0.212412 -0.24137916
0.03542502 -0.21677019 -0.1351388 0.26242244 0.23114544 -0.030082868 -0.08937409 -0.033866685
0.02693231 -0.23108247 -0.30113137 0.16669634 0.12562948 0.092385694 -0.13458134 -0.19961224
-0.2750933 -0.25911266 0.16722798 0.11894165 0.18823512 0.35901073 -0.02869915 -0.17058015
0.016565269 0.30323195 0.28236276 -0.3051571 -0.32857633 0.300773 -0.32877928 -0.17776212
-0.17286848 0.19815922 0.099993624 -0.3535619 0.03715066 -0.3775287 0.040179588 0.27522832
-0.018374339 -0.11394738 -0.23741296 -0.2509333 -0.12839265 0.044014603 0.31800926 -0.33479616
0.33167446 -0.17032385 0.27171624 0.14216912 -0.29397455 0.17099902 0.23649907 0.35004765
-0.27158976 -0.0598049 -0.1675048 -0.13085425 0.20972028 0.053621963 -0.2119523 -0.0678313
-0.1061453 -0.22543672 0.023761543 0.004712138 0.14884296 -0.28937566 -0.31764668 0.34712172
0.1824015 -0.30841565 -0.007992404 0.07614836 0.24281456 -0.03683141 0.050030615 -0.13550335
-0.29079893 -0.02759295 0.19996391 -0.339497 -0.07279501 -0.13018966 0.15337513 -0.10232184
-0.20767319 -0.05617069 0.035478927 -0.3056038 -0.10908204 0.18649296 -0.034865174 -0.19815221
-0.33296567 0.3261855 -0.0552934 -0.1301784 0.36293718 -0.30624962 -0.1694105 -0.074403055
0.18143207 0.05073139 -0.22050929 0.010160801 -0.06614568 -0.11553795 -0.23126985 0.2333969
-0.0736763 0.2922841 0.104349926 0.18552294 0.29452604 -0.0060679754 -0.3048604 0.022766754
-0.18357642 -0.18702132 0.28029555 -0.11069834 -0.29103246 -0.20440668 -0.17043866 -0.044180777
-0.029946689 -0.32326576 0.09731153 0.15265945 0.13769746 -0.3441542 0.25573033 0.09823308
-0.16124398 -0.15419105 0.25440174 0.17531207 -0.34646246 -0.05135402 0.31267047 0.22767788
0.27958363 0.12148498 -0.14583448 0.1185401 0.2623023 0.14915301 0.16549553 -0.0072605433
00000000: e96e b7bd 130c 913e cf14 07bd b255 2bbe
00000010: b492 dc3c 7df0 8bbd 477e aebd 736e c3be
00000020: 7a1e e9bd 7347 b43e e45b 04be a167 8bbe
00000030: 2585 a2be dbae 66bc 4440 68be 3e3f a8be
00000040: ac1d 993e f0fc 8ebe 7f8c a7be ce7e 933e
00000050: 5fb5 123e d2d2 9fbe e08e fe3c c9ec ddbe
00000060: 56cd 15be 7209 12be df26 68be 182f 113e
00000070: bac6 81bd 28fc 83bd e840 ac3e bf94 05be
00000080: a4b2 aabe 589e 7dbe 2ad5 1cbd e30c b93c
00000090: a1bb 3b3e 1091 98be 0b84 643e 6c59 a73d
000000a0: 5794 ef3d 30d9 c8bd 6757 84be 86b6 9b3e
000000b0: 723e 55be 1fb7 813e f9db 5e3e caec 313e
000000c0: 6ec7 2b3d c9b0 8b3e 2a1f 823e bafc 7c3e
000000d0: 53da 80be 6a4c 2d3e 9c5c 5d3e 1bb7 a5be
000000e0: 2d7a 8a3d 01ef f43d ec9d afbd 2196 62be
000000f0: 3afa 9fbe b0c8 8abd f3d2 693e 4156 113e
00000100: 341e b2be 2d02 55bd f949 a33e 4b99 d13c
00000110: 0f51 cb3d 3e0c 2abd 9421 bcbe 5142 88be
00000120: 07e4 c83e 9c88 3dbe f0b3 5dbe c0d8 b6be
00000130: fabb bdbd 9803 9ebe 2b96 c53d 1daa 8a3e
00000140: 3105 c93e 6490 5a3e 470e 15be c030 cfbd
00000150: a748 163d 96e7 86be 9075 a23e 2e2a 3f3d
00000160: ebcf eabe f6df 4ebe 5460 ecbd e654 673e
00000170: bd26 a8be 802f 83bd a557 ef3d e6bf a9bd
00000180: 262d 07be 9aa7 b6be 5d8a 86bd 4167 843e
00000190: 2919 5abe a7cf 413e 8882 593e 192c 77be
000001a0: d319 113d 01f9 5dbe d361 0abe 3c5c 863e
000001b0: 64b1 6c3e 5970 f6bc c309 b7bd cbb7 0abd
000001c0: 26a1 dc3c e2a0 6cbe e42d 9abe 72b2 2a3e
000001d0: 04a5 003e b634 bd3d b1cf 09be 2767 4cbe
000001e0: 07d9 8cbe 6aaa 84be d03d 2b3e ae97 f33d
000001f0: b5c0 403e 41d0 b73e 7b1a ebbc 90ac 2ebe
00000200: e3b3 873c 3841 9b3e da91 903e 8d3d 9cbe
00000210: 283b a8be ebfe 993e c255 a8be 4607 36be
00000220: 6f04 31be 40ea 4a3e 75c9 cc3d 1106 b5be
00000230: 4a2b 183d 714b c1be 5a93 243d baea 8c3e
00000240: c885 96bc 3e5d e9bd 621c 73be 547a 80be
00000250: 5d79 03be a848 343d 1cd2 a23e 676a abbe
00000260: 3cd1 a93e 6069 2ebe 641e 8b3e c894 113e
00000270: d583 96be 5e1a 2f3e d02c 723e 7239 b33e
00000280: d00d 8bbe fcf5 74bd 6186 2bbe a8fe 05be
00000290: eac0 563e b4a2 5b3d 060a 59be 23eb 8abd
000002a0: b562 d9bd e2d8 66be 91a7 c23c 4768 9a3b
000002b0: 4a6a 183e 0c29 94be 96a2 a2be f0b9 b13e
000002c0: 75c7 3a3e a8e8 9dbe 92f2 02bc acf3 9b3d
000002d0: 61a4 783e 88dc 16bd e7ec 4c3d 64c1 0abe
000002e0: 99e3 94be 9c0a e2bc 57c3 4c3e 8dd2 adbe
000002f0: 8d15 95bd 7050 05be 5f0e 1d3e 1d8e d1bd
00000300: 48a8 54be 3d13 66bd 5a52 113d 1a78 9cbe
00000310: 6866 dfbd 03f8 3e3e c9ce 0ebd 6ae8 4abe
00000320: 7a7a aabe c901 a73e 557b 62bd 7d4d 05be
00000330: e7d2 b93e c0cc 9cbe f279 2dbe a160 98bd
00000340: 54c9 393e b8cb 4f3d 30cd 61be 7d79 263c
00000350: 6377 87bd 299f ecbd 01d2 6cbe 99ff 6e3e
00000360: 9ae3 96bd 43a6 953e 6ab5 d53d baf9 3d3e
00000370: 1ecc 963e ded5 c6bb aa16 9cbe 5881 ba3c
00000380: 75fb 3bbe 8482 3fbe e682 8f3e d0b5 e2bd
00000390: 3502 95be fc4f 51be 7987 2ebe e7f6 34bd
000003a0: c252 f5bc 1783 a5be 444b c73d c252 1c3e
000003b0: 9000 0d3e fb34 b0be 16ef 823e 6d2e c93d
000003c0: 241d 25be 42e4 1dbe f240 823e 0285 333e
000003d0: 8763 b1be 9858 52bd 5816 a03e 6424 693e
000003e0: 9625 8f3e 1ecd f83d a255 15be 27c5 f23d
000003f0: 7d4c 863e 91bb 183e a977 293e dae9 edbb

decoder.decode_1.0.weight f4 [128, 64, 4]
0.053392615 0.045274537 -0.011459734 0.039627094 -0.056315605 0.0028016614 -0.017433323 0.0692551
-0.014481914 0.022958651 -0.055964936 0.016938923 0.048447654 0.02251214 -0.06464159 -0.0010999973
0.07310376 0.008963389 0.024287105 -0.010204727 0.03886653 0.011604907 0.0038822128 0.0046182587
-0.015964353 -0.018286085 0.05270337 0.025014322 -0.023464397 0.014694461 -0.011120718 -0.024867374
-0.03432263 -0.02178655 -0.015972836 0.0022289634 0.054392375 -0.011115598 0.047446042 -0.043203536
0.030821593 -0.06505168 0.00059285783 -0.054146808 -0.038982216 -0.037383754 -0.010440284 -0.012585952
0.016502174 0.053716574 -0.0019255085 0.05277849 0.011342694 0.034415692 -0.025182193 -0.0035722032
0.030468164 -0.040274158 -0.0020501353 0.021789078 0.014771237 -0.008986804 -0.044551894 0.07929319
0.042697318 -0.0057239514 -0.015583695 -0.013571856 0.02207375 -0.021528888 -0.021232782 0.06273756
-0.030515982 0.0028457076 -0.057321265 0.0026420765 0.011338809 -0.027471526 -0.010127295 0.06228871
-0.053191103 0.043841667 0.06057067 0.046359062 0.019232152 -0.024976075 -0.03206437 0.006224275
-0.060052287 0.033749696 -0.025273036 -0.036222357 -0.027681693 0.03722365 -0.032809675 -0.03408518
0.051060118 0.0010042693 -0.01234408 0.042050146 -0.040730357 0.019093813 0.058574818 -0.03177616
-0.01887481 -0.0076273764 -0.012633696 0.003697014 0.0035193588 0.06469024 0.03966969 -0.010126384
0.021756647 0.032822255 -0.020961577 0.040857866 -0.020013733 0.012771537 -7.168615e-05 0.038869612
-0.040701002 -0.023952052 0.018890113 -0.039841037 -0.024687964 -0.0037308151 0.028295068 0.04780079
-0.0479409 0.08151841 -0.006672106 -0.06070251 0.030701527 0.010025317 -0.007206642 -0.025194522
0.0021415078 -0.036919907 -0.03977615 -0.0143009545 0.01405694 -0.040094506 -0.03141907 -0.016046721
-0.011829339 -0.04836853 -0.027941022 -0.044254053 -0.0077907536 -0.013434029 -0.02357164 0.034245327
-0.045232814 -0.0015729069 -0.0016150682 -0.032892477 -0.01046788 -0.020662745 0.039154835 -0.040957082
0.010067572 0.011500231 0.033702247 0.043266084 0.029615173 0.00054085045 0.007450669 -0.020189313
0.029397959 0.0046191206 0.0073873512 -0.003359244 -0.020673625 -0.05249025 0.0015428559 0.034546565
0.026561067 0.0254367 0.042270232 0.023943475 -0.031096648 -0.021907197 0.018492365 -0.053823136
-0.004868984 -0.031801 0.058758467 -0.0070176288 -0.037597835 -0.035673197 -0.016681498 -0.015071485
-0.04257967 0.02567007 -0.060960993 0.01631529 0.004760991 -0.036071643 0.03615493 -0.011335112
-0.042809106 -0.046288088 -0.0291471 0.014194454 -0.044416085 0.034459528 -0.023332031 0.019353665
-0.025357032 0.040838413 -0.017444843 -0.06643941 0.00055410934 0.030492907 0.034711976 -0.0053235455
0.022057697 0.0011755736 0.025516095 0.06276775 0.020583019 0.039699852 -0.009273771 0.029265676
0.02732648 -0.018284135 0.013686579 -0.06228215 0.044847436 -0.07330739 0.011898103 0.021981556
-0.0017028376 -0.003930876 0.004442771 0.022306764 0.012887562 -0.03140286 0.042520232 0.043361332
0.07332418 0.00064232305 0.024570182 -0.004267866 -0.066462986 -0.046193156 -0.018841753 -0.038945492
-0.047706656 -0.00018537372 -0.057794157 -0.005622614 -0.012411661 -0.012514606 -0.008440914 0.01594909
00000000: 37b2 5a3d cb71 393d 9cc1 3bbc 0550 223d
00000010: 31ab 66bd 149c 373b 54d0 8ebc 9ed5 8d3d
00000020: 8d45 6dbc c813 bc3c 7d3b 65bd 7fc3 8a3c
00000030: 0c71 463d 616b b83c cf62 84bd c92d 90ba
00000040: 6db7 953d 2edb 123c c0f5 c63c ba31 27bc
00000050: 8332 1f3d 8222 3e3c b96c 7e3b c354 973b
00000060: adc7 82bc b3cc 95bc 7ddf 573d d6ea cc3c
00000070: 6838 c0bc 09c1 703c ac33 36bc aab6 cbbc
00000080: e395 0cbd b579 b2bc 77d9 82bc cd13 123b
00000090: 8aca 5e3d 321e 36bc c856 423d 31f6 30bd
000000a0: 917d fc3c d139 85bd 046a 1b3a 0bc9 5dbd
000000b0: d1ab 1fbd b51f 19bd ba0d 2bbc 4f35 4ebc
000000c0: 912f 873c e905 5c3d 5861 fcba 422e 583d
000000d0: b5d6 393c 78f7 0c3d e34a cebc a01b 6abb
000000e0: 5f98 f93c 84f6 24bd 905b 06bb 027f b23c
000000f0: 0f03 723c 633d 13bc 0c7c 36bd 7864 a23d
00000100: 62e3 2e3d fc8f bbbb c152 7fbc 7d5c 5ebc
00000110: 02d4 b43c 5a5d b0bc 5ff0 adbc 8d7c 803d
00000120: a7fc f9bc 0d7f 3a3b b4c9 6abd b026 2d3b
00000130: 69c6 393c f70b e1bc f4ec 25bc 7222 7f3d
00000140: eade 59bd 5293 333d f318 783d 00e3 3d3d
00000150: bf8c 9d3c a09a ccbc ee55 03bd 01f5 cb3b
00000160: 63f9 75bd 1f3d 0a3d 6609 cfbc e55d 14bd
00000170: b8c4 e2bc d377 183d 7063 06bd e79c 0bbd
00000180: 6a24 513d b0a1 833a d33e 4abc c63c 2c3d
00000190: e0d4 26bd a16a 9c3c 26ec 6f3d b827 02bd
000001a0: 589f 9abc 12ef f9bb 90fd 4ebc 9a49 723b
000001b0: 0ba5 663b 517c 843d af7c 223d 22e9 25bc
000001c0: ff3a b23c a170 063d 9db7 abbc 945a 273d
000001d0: d7f3 a3bc b53f 513c 3556 96b8 be35 1f3d
000001e0: 18b6 26bd 1837 c4bc 70bf 9a3c 5b30 23bd
000001f0: 6a3e cabc b180 74bb 0fcb e73c c3ca 433d
00000200: ad5d 44bd 20f3 a63d afa1 dabb 32a3 78bd
00000210: c581 fb3c 3a41 243c b225 ecbb be64 cebc
00000220: 8a58 0c3b 5439 17bd 51ec 22bd 8d4e 6abc
00000230: 144f 663c 233a 24bd 48b1 00bd 6a74 83bc
00000240: d8cf 41bc 141e 46bd 92e4 e4bc bd43 35bd
00000250: 9449 ffbb 671a 5cbc 5019 c1bc d444 0c3d
00000260: 0b46 39bd ff29 ceba b2b0 d3ba 43ba 06bd
00000270: 7981 2bbc eb44 a9bc d260 203d 9dc2 27bd
00000280: 75f2 243c 776b 3c3c 5e0b 0a3d c737 313d
00000290: 859b f23c dcc7 0d3a be24 f43b 0f64 a5bc
000002a0: fdd3 f03c fe5b 973b 9811 f23b c326 5cbb
000002b0: bc5b a9bc 0400 57bd a739 ca3a b380 0d3d
000002c0: 9896 d93c a060 d03c 8d23 2d3d 1b25 c43c
000002d0: 66be febc b976 b3bc 4d7d 973c a675 5cbd
000002e0: 008c 9fbb c441 02bd b8ac 703d 23f4 e5bb
000002f0: 3000 1abd 0f1e 12bd a3a7 88bc 64ee 76bc
00000300: 0568 2ebd 0a4a d23c 3cb2 79bd a5a7 853c
00000310: 1602 9c3b dcbf 13bd 3117 143d e8b6 39bc
00000320: 9a58 2fbd 9498 3dbd e6c5 eebc db8f 683c
00000330: a4ed 35bd 6f25 0d3d d122 bfbc 948b 9e3c
00000340: 8db9 cfbc 2e46 273d 7de8 8ebc 6311 88bd
00000350: a641 113a 43cc f93c 252e 0e3d 2371 aebb
00000360: 58b2 b43c b415 9a3a 2107 d13c 618c 803d
00000370: b89d a83c 509c 223d 04f1 17bc 92be ef3c
00000380: c8db df3c 9cc8 95bc ac3d 603c 911b 7fbd
00000390: f2b1 373d 2f22 96bd 43f0 423c aa12 b43c
000003a0: c031 dfba 94ce 80bb aa94 913b adbc b63c
000003b0: 5a26 533c 49a0 00bd b229 2e3d a79b 313d
000003c0: fd2a 963d 9261 283a 6847 c93c 74d9 8bbb
000003d0: bf1d 88bd 0935 3dbd 055a 9abc 4f85 1fbd
000003e0: 0e68 43bd e160 42b9 91b9 6cbd e83d b8bb
000003f0: 485a 4bbc 100a 4dbc c24b 0abc aaa7 823c

decoder.decode_1.0.bias f4 [64]
0.0069294646 -0.016940136 -0.06303323 -0.06417467 0.038926218 -0.023293814 0.00035116385 -0.017990403
0.022106308 0.052823786 -0.043765113 -0.00018165697 -0.05472734 -0.057270586 -0.025020314 -0.033640034
-0.0064222817 0.027658446 0.0039203935 0.027405333 0.02983848 0.020502778 0.05366642 0.03536947
-0.02568486 -0.026887905 0.04776249 0.0069052046 0.03290292 0.06436748 -0.019634876 -0.04697206
-0.02342492 -0.025696084 0.012656754 0.027042368 -0.03491507 -0.009873824 -0.04099256 0.0010825809
-0.034901522 0.012451585 -0.041707832 0.06855307 0.034625895 0.020046113 0.013033077 -0.039220627
-0.017878424 0.034872692 -0.04653462 -0.0067320853 -0.023617476 0.01279636 0.05755122 -0.013761246
0.016152473 -0.030266127 0.0198007 -0.015604083 0.01133481 -0.035030063 -0.0154722575 0.05583998
00000000: 9010 e33b 0ac6 8abc 9117 81bd 026e 83bd
00000010: 1971 1f3d abd2 bebc 6a1c b839 9c60 93bc
00000020: 4a18 b53c c15d 583d 0c43 33bd 2c7b 3eb9
00000030: c629 60bd 9094 6abd 67f7 ccbc 22ca 09bd
00000040: 0172 d2bb f793 e23c a576 803b 2681 e03c
00000050: d46f f43c 71f5 a73c 52d1 5b3d 94df 103d
00000060: 0e69 d2bc 0644 dcbc 9aa2 433d 0e45 e23b
00000070: 36c5 063d 19d3 833d 52d9 a0bc c665 40bd
00000080: 9ee5 bfbc 9880 d2bc 465e 4f3c f587 dd3c
00000090: 1b03 0fbd d2c5 21bc d1e7 27bd 63e5 8d3a
000000a0: e6f4 0ebd bc01 4c3c d5d5 2abd 8d65 8c3d
000000b0: e2d3 0d3d bf37 a43c b088 553c cfa5 20bd
000000c0: c675 92bc abd6 0e3d 169b 3ebd d398 dcbb
000000d0: 7079 c1bc d3a7 513c d4ba 6b3d d976 61bc
000000e0: 3152 843c abf0 f7bc 1435 a23c 45a8 7fbc
000000f0: a4b5 393c af7b 0fbd 5a7f 7dbc 76b8 643d

decoder.decode_1.1.weight f4 [64]
0.95512456 0.9539384 1.0105325 0.9654002 0.95923734 0.97634345 0.98184216 0.9974175
0.96113724 1.008815 1.0285735 1.0615339 0.98298746 1.0498196 1.0745856 0.95819634
1.0277869 0.97559613 0.98494196 0.9642769 0.93486077 1.0089078 0.97986144 0.9640041
1.0000739 0.9829821 1.0477798 1.0100536 1.0684311 0.97899306 0.99532866 0.9522694
0.96553665 0.9705201 0.9833845 0.9848401 0.9875425 0.9630623 1.0005119 1.0366808
0.9619447 1.0482742 1.0565443 0.9441777 1.0139923 0.9941489 1.0514436 0.95251614
1.0092627 1.0165769 1.0298641 1.0156021 0.96167505 1.0347257 1.0059069 0.9626458
1.0434126 0.99837834 0.95597905 0.9700501 0.9814572 1.0198629 0.96122175 0.97410274
00000000: 0b83 743f 4f35 743f 2159 813f 7824 773f
00000010: 9490 753f a5f1 793f 025a 7b3f c156 7f3f
00000020: 170d 763f da20 813f 4ca8 833f 58e0 873f
00000030: 11a5 7b3f 7d60 863f 058c 893f 5b4c 753f
00000040: 858e 833f abc0 793f 2825 7c3f dada 763f
00000050: 0953 6f3f e423 813f 33d8 7a3f f9c8 763f
00000060: 6c02 803f b7a4 7b3f a61d 863f 7049 813f
00000070: 5ac2 883f 4a9f 7a3f dccd 7e3f edc7 733f
00000080: 692d 773f 0174 783f 16bf 7b3f 7b1e 7c3f
00000090: 96cf 7c3f 408b 763f c610 803f f5b1 843f
000000a0: 0242 763f d92d 863f d83c 873f a1b5 713f
000000b0: 80ca 813f 8b80 7e3f b495 863f 19d8 733f
000000c0: 852f 813f 311f 823f 96d2 833f 40ff 813f
000000d0: 5630 763f e471 843f 8fc1 803f f56f 763f
000000e0: 8b8e 853f b995 7f3f 0bbb 743f 3455 783f
000000f0: c740 7b3f de8a 823f a112 763f cc5e 793f

decoder.decode_1.1.bias f4 [64]
0.03809893 -0.022117373 0.021750875 -0.014066255 0.03881824 0.03794214 0.0026010238 -0.03045542
0.0012997271 0.075502776 -0.0042696386 -0.051580567 0.06880412 -0.02728862 -0.06919269 -0.008100128
0.013777722 0.027909853 -0.019835701 0.015490588 -0.032921508 -0.03016406 -0.028134737 0.024548192
0.0071900943 0.014320237 -0.03526433 -0.040923268 -0.01636102 0.045804434 0.04828593 -0.010440656
0.06897591 -0.01266483 -0.03559821 0.021699866 0.0011595561 0.032072086 0.02709815 -0.03983936
0.006748979 -0.04199109 -0.033149485 -0.013279265 -0.049638722 -0.018505218 -0.0068991682 -0.018411936
0.023153491 -0.05239545 -0.008630969 -0.026624713 -0.00021780135 -0.03570122 0.029517252 -0.025334084
-0.041214794 0.044274602 -0.020006582 -0.0461554 0.023331542 0.00014738533 -0.026291028 0.027197493
00000000: a00d 1c3d 7e2f b5bc e42e b23c 2676 66bc
00000010: e0ff 1e3d 3869 1b3d f075 2a3b a57d f9bc
00000020: 9b5b aa3a 33a1 9a3d 53e8 8bbb 2546 53bd
00000030: 2de9 8c3d 628c dfbc e6b4 8dbd 66b6 04bc
00000040: f4bb 613c 34a3 e43c 7b7e a2bc 3ccc 7d3c
00000050: b4d8 06bd 9e1a f7bc d27a e6bc 4a19 c93c
00000060: e29a eb3b 6d9f 6a3c 5571 10bd 289f 27bd
00000070: 8c07 86bc 6e9d 3b3d 78c7 453d 490f 2bbc
00000080: 3e43 8d3d 2680 4fbc 6ecf 11bd ebc3 b13c
00000090: 3ffc 973a 055e 033d f1fc dd3c 992e 23bd
000000a0: 8a26 dd3b d9fe 2bbd c1c7 07bd 4691 59bc
000000b0: f951 4bbd 4198 97bc 6b12 e2bb a1d4 96bc
000000c0: 64ac bd3c 9d9c 56bd e868 0dbc 121c dabc
000000d0: 9b61 64b9 713b 12bd 2ace f13c 6d89 cfbc
000000e0: d8d0 28bd 4959 353d d8e4 a3bc 720d 3dbd
000000f0: ca21 bf3c 738b 1a39 4860 d7bc 47cd de3c

decoder.decode_1.1.running_mean f4 [64]
0.013219177 -0.03016633 -0.06717547 -0.06675173 0.041039538 -0.0137800425 -0.005009325 -0.019406207
0.019700766 0.050662532 -0.048988976 0.020090424 -0.053811565 -0.057781905 -0.024471661 -0.02905399
-0.011300785 0.025279738 0.008119024 0.052412093 0.030103125 0.028491003 0.049887322 -0.014364093
-0.024040366 -0.03595285 0.06300895 0.017969469 0.036880773 0.07904673 -0.021762181 -0.05566729
-0.025031624 -0.03284398 0.021961836 0.029335715 -0.029151926 -0.017345604 -0.0588213 -0.016837548
-0.03980907 0.0052355374 -0.029414145 0.06767077 0.05215854 0.039977886 0.010801951 -0.033651665
-0.011380615 0.03358365 -0.035221774 -0.015848437 -0.026869906 0.035906885 0.05326588 -0.016991695
0.023019936 -0.04351282 0.03277763 -0.0051711313 0.008825513 -0.020101605 -0.01622135 0.06405459
00000000: 3f95 583c 611f f7bc 4b93 89bd 22b5 88bd
00000010: 1319 283d b0c5 61bc 4425 a4bb c4f9 9ebc
00000020: 8063 a13c 8483 4f3d aaa8 48bd ac94 a43c
00000030: 8469 5cbd b8ac 6cbd cb78 c8bc a202 eebc
00000040: ed26 39bc 7417 cf3c a805 053c 10ae 563d
00000050: d49a f63c f765 e93c a656 4c3d 5f57 6bbc
00000060: 4df0 c4bc 4c43 13bd d60a 813d b534 933c
00000070: 4b10 173d 41e3 a13d 9a46 b2bc 6203 64bd
00000080: 1f0f cdbc 6987 06bd 4fe9 b33c 7451 f03c
00000090: 05d0 eebc 5e18 8ebc 9aee 70bd e6ee 89bc
000000a0: d60e 23bd df8e ab3b eff5 f0bc f996 8a3d
000000b0: 31a4 553d dabf 233d abfa 303c 54d6 09bd
000000c0: c275 3abc 028f 093d b544 10bd 95d4 81bc
000000d0: 471e dcbc 1913 133d 532d 5a3d 2b32 8bbc
000000e0: 4e94 bc3c 803a 32bd d641 063d 9872 a9bb
000000f0: e298 103c 1fac a4bc a3e2 84bc 0e2f 833d

decoder.decode_1.1.running_var f4 [64]
0.06595148 0.073893465 0.05790975 0.069705114 0.06836929 0.058594037 0.06315417 0.07327277
0.07089349 0.06780052 0.07823893 0.07145477 0.07095951 0.08580903 0.07383924 0.06862925
0.081451796 0.06015129 0.07233062 0.0647918 0.06375441 0.07073834 0.07222173 0.0691887
0.065993436 0.062724456 0.08817336 0.08235142 0.077529095 0.06711382 0.06577075 0.06900356
0.06347883 0.069592476 0.0743097 0.083257355 0.061920267 0.068022706 0.06483418 0.078620456
0.06721988 0.073912196 0.07863756 0.060269065 0.07700006 0.06327701 0.06502311 0.05923457
0.06489531 0.07034501 0.06713446 0.07122923 0.060476653 0.080104806 0.06361512 0.06950426
0.06409224 0.06541827 0.07291365 0.06713198 0.07176011 0.056071475 0.061687708 0.057923052
00000000: 9211 873d 7555 973d c632 6d3d 8ec1 8e3d
00000010: 3305 8c3d 4d00 703d f956 813d 0910 963d
00000020: 9b30 913d 00db 8a3d bb3b a03d e156 923d
00000030: 3853 913d a5bc af3d 0739 973d 7e8d 8c3d
00000040: 33d0 a63d 3361 763d 1322 943d 90b1 843d
00000050: ac91 823d 43df 903d fde8 933d ceb2 8d3d
00000060: 9127 873d ae75 803d 3c94 b43d dca7 a83d
00000070: 93c7 9e3d f872 893d d1b2 863d bd51 8d3d
00000080: 3001 823d 8086 8e3d af2f 983d d582 aa3d
00000090: 1ba0 7d3d 7d4f 8b3d c8c7 843d c303 a13d
000000a0: 94aa 893d 475f 973d bb0c a13d b2dc 763d
000000b0: 35b2 9d3d 6197 813d d62a 853d f39f 723d
000000c0: d5e7 843d 0b11 903d cb7d 893d a1e0 913d
000000d0: 5eb6 773d fd0d a43d a548 823d 4058 8e3d
000000e0: cb42 833d 04fa 853d c053 953d 7e7c 893d
000000f0: f7f6 923d 34ab 653d 40ac 7c3d b940 6d3d

decoder.decode_2.0.weight f4 [64, 32, 5]
-0.034715507 -0.01138271 0.10285394 0.007919432 0.02910146 -0.02598846 -0.05712758 0.00038841518
-0.021677144 -0.00015445505 -0.052210663 -0.0323133 -0.036584377 0.047511112 -0.01024292 0.031686068
0.0110485405 0.03142316 -0.035600964 0.02209248 0.099616654 -0.015753262 0.07714236 0.043322194
0.012297531 -0.025789762 -0.047097817 -0.025827967 -0.009917305 -0.01973041 0.030632025 -0.04020187
-0.031572748 0.03260696 0.018259231 0.045661956 -0.01807155 0.016853249 -0.05807035 0.05980484
-0.003862386 0.03903721 0.030227164 -0.039026372 0.0029361623 -0.0038714388 0.0028521856 0.009850027
-0.024644488 0.008829962 -0.035919104 0.032214187 -0.06727372 -0.076382674 -0.029646672 -0.0059623425
0.007054449 -0.045256037 0.045900673 0.03928006 -0.044517748 -0.019479275 0.029568821 -0.0063815853
0.024883397 -0.0189296 0.043307286 0.018099189 0.07620642 -0.099983096 -0.01891679 0.054316014
0.011613542 -0.013748968 0.012068146 -0.019559428 0.045764964 -0.02911082 0.04691153 0.04471245
0.04031707 -0.06397952 0.027585305 -0.015648354 -0.04648969 0.009974411 0.020455344 -0.048200283
0.028679978 -0.008760977 -0.022873921 -0.013773924 -0.042531252 -0.022718545 0.0009187144 -0.04669985
-0.042164996 0.04349389 0.03275026 -0.008906517 0.0077468106 -0.016526677 -0.0010010628 -0.002268897
0.0023453275 -0.017394256 -0.014809666 -0.02370856 0.026894426 -0.05767532 0.061408643 -0.019928386
-0.05080659 0.022370525 -0.021183908 -0.03364494 -0.05710599 0.03028358 -0.02228387 0.06315114
0.012350442 -0.10000835 -0.06734084 0.04455849 0.066653036 0.031109862 0.009530123 -0.021002455
0.053911313 -0.00710182 0.09873939 -0.050609734 -0.069151245 0.007888928 0.023348263 -0.019776968
-0.09334828 -0.0053151683 0.06930272 0.001955725 -0.030569742 0.025008429 -0.0049225194 -0.025151929
-0.0663466 0.007639254 0.023434896 0.046830192 0.04162365 -0.054797478 0.076053016 0.03377115
-0.041314624 0.094696574 -0.05073659 -0.10638704 -0.0031442272 -0.018864814 0.0341353 -0.029248679
-0.006437776 -0.019900769 0.082939066 -0.06094659 0.015855094 -0.077831835 0.04021031 -0.036389414
-0.03788263 -0.041256305 -0.016425176 0.020266343 -0.06256781 -0.003537886 0.043943767 -0.08523409
-0.028815286 -0.019888708 -0.029027816 0.032442153 -0.021898475 0.007824358 0.06384328 -0.020142576
-0.029454786 -0.068676695 0.027844138 0.023510125 -0.0005011163 0.03207596 -0.0111520905 -0.05038466
0.043873385 0.07508025 0.019796737 -0.048358772 -0.023057476 -0.037591483 -0.0455472 -0.0024387178
-0.017699454 -0.060442306 -0.029002642 -0.01921746 0.047966696 -0.06700155 0.019597642 0.012552056
-0.0064992127 0.010373602 0.009949053 -0.06190599 0.005555764 -0.018685 -0.00791234 -0.028850248
-0.016943943 -0.006059084 -0.0635228 0.010508799 0.0059597627 -0.021056812 -0.0025826788 0.027381472
0.016511854 -0.0026274605 0.041024536 0.040911842 -0.0032427004 -0.031064933 0.024586353 0.022156427
-0.037930544 0.00025742667 0.073492184 0.0015461445 -0.0351999 0.006333393 0.03740224 0.055368252
-0.038461626 -0.052126814 0.033878934 0.050924852 -0.051213328 -0.096385546 -0.014014144 -0.06522852
-0.06699917 0.007565723 0.023783974 0.009437642 -0.04456392 -0.040407214 -0.017364066 0.021830596
00000000: d931 0ebd 8c7e 3abc 16a5 d23d 81c0 013c
00000010: 2f66 ee3c c0e5 d4bc 9cfe 69bd 34a4 cb39
00000020: 4494 b1bc 36f5 21b9 d9da 55bd f35a 04bd
00000030: 80d9 15bd 039b 423d ecd1 27bc 40c9 013d
00000040: f004 353c 92b5 003d 51d2 11bd 4afb b43c
00000050: d103 cc3d fc0c 81bc d0fc 9d3d 9d72 313d
00000060: 957b 493c 0d45 d3bc a4e9 40bd 2c95 d3bc
00000070: 317c 22bc aba1 a1bc 03f0 fa3c b7aa 24bd
00000080: 6d52 01bd e08e 053d 6294 953c 0808 3b3d
00000090: ca0a 94bc d30f 8a3c 2ddb 6dbd ebf5 743d
000000a0: 1620 7dbb 7be5 1f3d f59e f73c 1eda 1fbd
000000b0: a16c 403b f7b7 7dbb bceb 3a3b 0262 213c
000000c0: 3de3 c9bc 8cab 103c e91f 13bd 06f3 033d
000000d0: cec6 89bd 856e 9cbd 94dd f2bc c15f c3bb
000000e0: 0229 e73b 655e 39bd 5802 3c3d 21e4 203d
000000f0: 3e58 36bd 0093 9fbc 503a f23c 9e1c d1bb
00000100: 44d8 cb3c 4012 9bbc fb62 313d c044 943c
00000110: 1d12 9c3d f0c3 ccbd 62f7 9abc 787a 5e3d
00000120: ba46 3e3c 5a43 61bc 79b9 453c 183b a0bc
00000130: 0b74 3b3d d079 eebc 4e26 403d 6724 373d
00000140: 8323 253d b207 83bd 94fa e13c fa30 80bc
00000150: f96b 3ebd b66b 233c f791 a73c a96d 45bd
00000160: 46f2 ea3c 338a 0fbc 1762 bbbc 06ac 61bc
00000170: 4035 2ebd 3e1c babc e1d5 703a 5848 3fbd
00000180: 34b5 2cbd a626 323d 2325 063d a4ec 11bc
00000190: f5d8 fd3b f462 87bc 1836 83ba c6b1 14bb
000001a0: 11b4 193b 667e 8ebc 3ea4 72bc 7438 c2bc
000001b0: b351 dc3c f53c 6cbd a187 7b3d db40 a3bc
000001c0: 921a 50bd 6442 b73c e089 adbc 47cf 09bd
000001d0: f8e7 69bd 4515 f83c aa8c b6bc 6355 813d
000001e0: 8259 4a3c 2ed1 ccbd ffe9 89bd f782 363d
000001f0: 6381 883d 1cda fe3c 3c24 1c3c 570d acbc
00000200: 1cd2 5c3d 62b6 e8bb e137 ca3d 274c 4fbd
00000210: 2b9f 8dbd 9040 013c db44 bf3c 4f03 a2bc
00000220: 622d bfbd dd2a aebb 96ee 8d3d 9f2b 003b
00000230: 656d fabc 7ade cc3c 164d a1bb 6b0b cebc
00000240: bae0 87bd b552 fa3b 8afa bf3c 04d1 3f3d
00000250: 8f7d 2a3d 5273 60bd afc1 9b3d 9e53 0a3d
00000260: 8639 29bd 47f0 c13d 2cd1 4fbd 73e1 d9bd
00000270: 610f 4ebb 628a 9abc 75d1 0b3d ed9a efbc
00000280: fbf3 d2bb f006 a3bc f5db a93d 22a3 79bd
00000290: 8be2 813c 4c66 9fbd 91b3 243d 110d 15bd
000002a0: d12a 1bbd 5ffc 28bd 178e 86bc 9a05 a63c
000002b0: 8d23 80bd e1db 67bb 61fe 333d 368f aebd
000002c0: 090e ecbc a5ed a2bc becb edbc 10e2 043d
000002d0: 6e64 b3bc bc31 003c 44c0 823d 0b02 a5bc
000002e0: 2a4b f1bc 5ea6 8cbd 6419 e43c 4e98 c03c
000002f0: 585d 03ba 1562 033d 42b7 36bc 2560 4ebd
00000300: 94b4 333d adc3 993d c42c a23c d913 46bd
00000310: 08e3 bcbc 87f9 19bd b38f 3abd e5d2 1fbb
00000320: 72fe 90bc 5a92 77bd f396 edbc ef6d 9dbc
00000330: ba78 443d 1c38 89bd 3c8b a03c 24a7 4d3c
00000340: 59f7 d4bb 0af6 293c 5a01 233c 2391 7dbd
00000350: 200d b63b 4911 99bc c2a2 01bc 5b57 ecbc
00000360: 06ce 8abc 488b c6bb 3e18 82bd 192d 2c3c
00000370: 1d4a c33b 567f acbc 2942 29bb 1c4f e03c
00000380: de43 873c 7931 2cbb 5809 283d 2d93 273d
00000390: 7c83 54bb e37b febc 5269 c93c 6581 b53c
000003a0: 0f5d 1bbd 39f7 8639 1283 963d 00a8 ca3a
000003b0: c52d 10bd 5a88 cf3b 1733 193d d2c9 623d
000003c0: f089 1dbd ed82 55bd a3c4 0a3d 9496 503d
000003d0: 11c5 51bd c965 c5bd 959b 65bc 8896 85bd
000003e0: dc36 89bd e2e9 f73b 9cd6 c23c 57a0 1a3c
000003f0: a888 36bd 0982 25bd 163f 8ebc 14d6 b23c

decoder.decode_2.0.bias f4 [32]
-0.0826534 -0.046738796 0.06223596 -0.075435124 -0.0020502438 0.071546406 0.007195594 0.0212052
0.035763007 -0.05391647 0.055264782 0.016067054 -0.024602946 -0.028379908 -0.01594768 0.021156242
0.0546464 0.056917835 -0.06747708 0.07124395 0.032912865 -0.01983831 -0.03359807 -0.039895274
0.029931543 -0.03886428 0.057868514 -0.076653026 -0.00026067565 0.06818354 0.054011807 -0.015936418
00000000: 3046 a9bd 2e71 3fbd 22eb 7e3d bb7d 9abd
00000010: 625d 06bb ec86 923d 04c9 eb3b 87b6 ad3c
00000020: 3b7c 123d 84d7 5cbd 535d 623d 0e9f 833c
00000030: 1e8c c9bc fb7c e8bc b6a4 82bc db4f ad3c
00000040: e7d4 5f3d ad22 693d 6c31 8abd 59e8 913d
00000050: a4cf 063d f483 a2bc 219e 09bd 3a69 23bd
00000060: ff32 f53c 2730 1fbd 8907 6d3d 43fc 9cbd
00000070: 4bab 88b9 d0a3 8b3d 7c3b 5d3d 178d 82bc

decoder.decode_2.1.weight f4 [32]
0.9450133 0.96431035 0.9814977 0.9674256 0.9444606 0.96724397 1.0513787 0.97363156
0.95561516 0.9609925 0.95013386 0.9649113 0.9986098 1.0501547 1.0044957 0.9727018
0.9470033 0.96034354 1.0167783 0.9956934 0.94858354 1.0182867 0.98293877 0.941452
1.026835 0.95382315 0.97741693 0.9572052 0.9453515 0.9666604 1.0160991 1.035275
00000000: 64ec 713f 0bdd 763f 6f43 7b3f 34a9 773f
00000010: 2bc8 713f 4d9d 773f 9493 863f eb3f 793f
00000020: 32a3 743f 9b03 763f f93b 733f 6d04 773f
00000030: e4a4 7f3f 786b 863f 5193 803f fc02 793f
00000040: cf6e 723f 13d9 753f cb25 823f c3e5 7e3f
00000050: 5fd6 723f 3857 823f e0a1 7b3f 0003 713f
00000060: 546f 833f c12d 743f ff37 7a3f 660b 753f
00000070: 8e02 723f 0e77 773f 890f 823f e483 843f

decoder.decode_2.1.bias f4 [32]
-0.050338376 -0.029209571 -0.014632891 -0.022202265 -0.050859787 -0.028462153 0.047437876 -0.01810805
-0.028810086 -0.0257464 -0.026822118 -0.014014678 0.027858706 0.057869013 -0.018181346 -0.028685084
-0.054475315 -0.03604161 0.03963112 0.015849655 -0.03544007 0.028991446 0.01476031 -0.040796403
0.03285069 -0.03453534 -0.026663998 -0.03970277 -0.056091517 -0.024709431 0.03192612 0.039497256
00000000: 9d2f 4ebd e948 efbc cbbe 6fbc 86e1 b5bc
00000010: 5a52 50bd 7629 e9bc 384e 423d 5557 94bc
00000020: 2103 ecbc 1dea d2bc 0fba dbbc d29d 65bc
00000030: f137 e43c 0f08 6d3d 0cf1 94bc fbfc eabc
00000040: 8221 5fbd 5ea0 13bd 3e54 223d 23d7 813c
00000050: 9b29 11bd 787f ed3c 3ad5 713c 211a 27bd
00000060: 728e 063d ee74 0dbd 756e dabc 5f9f 22bd
00000070: 38c0 65bd 6f6b cabc f7c4 023d e0c7 213d

decoder.decode_2.1.running_mean f4 [32]
-0.27872923 -0.095796816 -0.023344582 -0.04745285 -0.09283203 -0.073130265 0.0069960873 0.13783726
0.1459939 -0.04179745 0.35457665 0.1127495 -0.14717479 -0.21588027 0.31722674 -0.043315668
0.14729564 0.06369161 -0.15013035 0.16723613 0.10939884 -0.3123909 0.27508444 -0.03950576
0.10467949 0.14734358 0.34523526 -0.091647364 0.015638571 0.14735207 -0.1093796 -0.21305239
00000000: 99b5 8ebe 1f31 c4bd 233d bfbc eb5d 42bd
00000010: b81e bebd 52c5 95bd 6f3f e53b 3625 0d3e
00000020: 6d7f 153e ce33 2bbd 128b b53e 36e9 e63d
00000030: fdb4 16be b80f 5dbe 8b6b a23e c56b 31bd
00000040: abd4 163e bf70 823d c5bb 19be f33f 2b3e
00000050: 800c e03d b3f1 9fbe ded7 8c3e cbd0 21bd
00000060: 3362 d63d 3ce1 163e adc2 b03e 9db1 bbbd
00000070: 761c 803c 76e3 163e 6902 e0bd 682a 5abe

decoder.decode_2.1.running_var f4 [32]
0.8710977 0.38397992 0.5296676 0.3390728 0.95329154 0.8975881 0.60444003 0.6233003
0.60495996 1.2376207 0.5361701 0.65490866 0.6370941 0.49913725 0.9454666 0.8604922
0.63425744 0.5443594 0.8021261 0.65087396 0.8490816 0.49598214 0.87698233 0.7326957
0.49813336 0.6630069 0.84902 0.5329826 0.8093033 0.4777814 0.43455598 0.25309467
00000000: 4200 5f3f 0499 c43e 4c98 073f f39a ad3e
00000010: ea0a 743f 55c8 653f 95bc 1a3f 9c90 1f3f
00000020: a8de 1a3f 5b6a 9e3f 7242 093f 18a8 273f
00000030: 9918 233f eb8e ff3e 190a 723f 3849 5c3f
00000040: b25e 223f 235b 0b3f 2358 4d3f ad9f 263f
00000050: 695d 593f 5ff1 fd3e ea81 603f f291 3b3f
00000060: 560b ff3e d2ba 293f 6059 593f 8c71 083f
00000070: 802e 4f3f c39f f43e 1f7e de3e a095 813e

decoder.decode_3.0.weight f4 [32, 1, 4]
-0.3111726 0.2018003 0.33529624 -0.36526102 0.29963937 0.1980046 0.35502037 0.2304957
0.267369 0.44725025 -0.120756604 0.41413796 0.06112265 0.21370183 0.22039267 0.13318637
0.38175762 -0.30440098 -0.07315634 -0.3782745 0.1619351 -0.3271007 0.030301277 0.3269345
-0.45883468 0.015924012 -0.51883817 0.38966593 0.054298084 0.42417818 0.051481247 0.018407518
-0.11545138 -0.14859127 0.36365098 0.092592426 0.40619978 -0.30065206 -0.0418495 0.4721827
-0.28318003 -0.17769447 0.3640296 0.23004246 -0.09579531 0.42770404 0.37289405 0.44044903
-0.39859483 -0.41655335 0.3040153 0.2829776 0.089686856 0.36700052 -0.48866245 -0.2642241
0.4312847 0.18391038 -0.4998958 -0.31493017 0.13891166 0.42155483 0.048067074 -0.27629855
0.08455428 -0.46164808 0.3073506 -0.3296379 0.116830125 0.03563815 0.37521338 -0.037281055
0.34334388 -0.21588105 -0.48348656 0.16631733 0.043867208 0.39682084 -0.2833961 0.4754513
0.1864498 -0.29201028 0.21558452 0.113783784 -0.42010286 -0.3933372 0.24461639 -0.23561616
-0.34323972 0.09415763 0.25932598 -0.37587044 -0.28660193 -0.28466046 0.44194242 -0.15820676
-0.45798135 -0.021975726 0.24557514 -0.41918337 -0.06600396 -0.031116901 0.39385408 0.23252988
0.42912367 -0.09838068 -0.46249798 -0.037887968 0.3459933 -0.37002814 0.1792679 0.14134873
0.4508317 -0.0968798 0.14204593 -0.25662404 0.08665599 0.13518576 0.25374722 0.24348846
-0.48108009 -0.42886856 0.24690178 -0.3417461 -0.5421737 -0.37539166 -0.2533746 -0.42950717
00000000: 0452 9fbe bda4 4e3e f3ab ab3e 7e03 bbbe
00000010: 556a 993e b8c1 4a3e 3bc5 b53e 1107 6c3e
00000020: 97e4 883e fcfd e43e 3d4f f7bd e409 d43e
00000030: be5b 7a3d a7d4 5a3e 9eae 613e 0262 083e
00000040: bc75 c33e 72da 9bbe fed2 95bd 32ad c1be
00000050: 51d2 253e be79 a7be 623a f83c f563 a73e
00000060: 61ec eabe 1373 823c 94d2 04bf 4b82 c73e
00000070: ab67 5e3d e22d d93e 00de 523d 5dcb 963c
00000080: c671 ecbd 4f28 18be 7630 ba3e 19a1 bd3d
00000090: 6bf9 cf3e 11ef 99be 626a 2bbd eec1 f13e
000000a0: f9fc 90be 8af5 35be 1662 ba3e 4090 6b3e
000000b0: 5530 c4bd 06fc da3e f8eb be3e 8982 e13e
000000c0: 9f14 ccbe 7b46 d5be e5a7 9b3e 71e2 903e
000000d0: bead b73d 7ee7 bb3e f731 fabe 6248 87be
000000e0: 59d1 dc3e 0153 3c3e 58f2 ffbe 873e a1be
000000f0: dc3e 0e3e 09d6 d73e fbe1 443d 0177 8dbe
00000100: cb2a ad3d 235d ecbe 0f5d 9d3e 4dc6 a8be
00000110: a244 ef3d 4ff9 113d f81b c03e 05b4 18bd
00000120: c5ca af3e ec0f 5dbe 8d8b f7be 174f 2a3e
00000130: 1aae 333d 1a2c cb3e 4b19 91be 5a6e f33e
00000140: b2ec 3e3e 5f82 95be 30c2 5c3e 7907 e93d
00000150: b917 d7be 7e63 c9be b87c 7a3e 5d45 71be
00000160: 1ebd afbe b7d5 c03d 60c6 843e 1772 c0be
00000170: 7dbd 92be 04bf 91be 4746 e23e f400 22be
00000180: 887c eabe 7006 b4bc 0d78 7b3e 349f d6be
00000190: 162d 87bd dfe8 febc 3ea7 c93e 501c 6e3e
000001a0: 19b6 db3e cf7b c9bd 89cc ecbe 6a30 1bbd
000001b0: 0926 b13e 5474 bdbe 0192 373e b9bd 103e
000001c0: 6ad3 e63e eb68 c6bd 7d74 113e 3a64 83be
000001d0: b278 b13d 236e 0a3e 28eb 813e 0a55 793e
000001e0: 2150 f6be a994 dbbe d2d3 7c3e 58f9 aebe
000001f0: e5cb 0abf 5633 c0be 51ba 81be 5de8 dbbe

encoder.encode_1.0.weight f4 [16, 1, 4]
-0.44571504 -0.4967638 0.18433705 -0.086162455 -0.009239352 -0.2192529 0.11052625 0.42944175
-0.03799304 -0.3787729 0.51122415 0.22403108 0.094627306 0.012017977 -0.14515792 -0.051732704
0.09332126 -0.37785578 -0.07051366 -0.17910856 0.03519169 0.31719065 0.37838906 -0.06376786
-0.11198679 -0.32126006 -0.26544282 0.24662726 -0.060759302 0.30651906 0.03638756 0.30011725
-0.3433073 -0.06821439 -0.4154413 0.2726175 -0.21002004 0.15684491 -0.0730768 -0.4587165
0.29978693 0.0027683107 0.40133035 0.14346679 -0.20028368 0.31131473 -0.13315019 -0.45023423
0.14919713 0.14672516 0.15098801 0.20745619 -0.4695573 -0.04271875 -0.15720807 -0.2137479
0.102201484 0.33476245 -0.45238966 0.2651052 -0.20358792 0.16128643 -0.030292712 -0.10553485
00000000: c334 e4be d357 febe dac2 3c3e f175 b0bd
00000010: a760 17bc d583 60be 965b e23d cadf db3e
00000020: 979e 1bbd 86ee c1be 96df 023f 6768 653e
00000030: f6cb c13d 0de7 443c 47a4 14be ace5 53bd
00000040: 371f bf3d 5076 c1be 7769 90bd 3c68 37be
00000050: 2925 103d d066 a23e 36bc c13e b998 82bd
00000060: 5559 e5bd 337c a4be 1fe8 87be db8b 7c3e
00000070: bfde 78bd 11f0 9c3e 1f0b 153d f8a8 993e
00000080: f9c5 afbe fcb3 8bbd b9b4 d4be 8594 8b3e
00000090: 7e0f 57be f49b 203e 4aa9 95bd e4dc eabe
000000a0: ac7d 993e 8c6c 353b 2c7b cd3e f5e8 123e
000000b0: 2a17 4dbe a564 9f3e 8658 08be 1a85 e6be
000000c0: 22c7 183e 1f3f 163e 9a9c 1a3e 656f 543e
000000d0: d069 f0be dbf9 2ebd 27fb 20be bbe0 5abe
000000e0: 034f d13d fc65 ab3e 9e9f e7be debb 873e
000000f0: 5a79 50be 4528 253e 6c28 f8bc a822 d8bd

encoder.encode_1.0.bias f4 [16]
-0.07716971 -0.08792774 -0.07599809 0.30047145 -0.12200123 0.23401065 0.16595326 -0.15881845
-0.20927574 0.2816551 -0.47520033 0.29455283 -0.13338734 -0.19377671 -0.25150952 -0.10859333
00000000: 270b 9ebd 7513 b4bd e3a4 9bbd 65d7 993e
00000010: c8db f9bd 7da0 6f3e a7ef 293e 4ea1 22be
00000020: 614c 56be 1935 903e 754d f3be a1cf 963e
00000030: b196 08be 676d 46be dbc5 80be 2e66 debd

encoder.encode_1.1.weight f4 [16]
1.004911 1.0099434 0.99480647 0.98418295 0.9967995 0.9904592 1.0026022 1.010995
1.0046146 1.000725 0.99230385 0.99824786 1.0161604 1.004754 0.97686356 0.99620295
00000000: eca0 803f d345 813f a3ab 7e3f 6af3 7b3f
00000010: 412e 7f3f bc8e 7d3f 4555 803f 4968 813f
00000020: 3697 803f c217 803f a007 7e3f 2c8d 7f3f
00000030: 8b11 823f c79b 803f bb13 7a3f 2807 7f3f

encoder.encode_1.1.bias f4 [16]
0.010850092 -0.010191152 -0.015009404 -0.007684482 -0.0010865141 -0.009554253 0.008226815 -0.004732405
0.011792026 -0.0006372245 -0.0029535436 0.005226421 0.0015415903 0.006984586 -0.008776784 0.001018492
00000000: 96c4 313c caf8 26bc 01ea 75bc 1bce fbbb
00000010: 5d69 8eba 7189 1cbc c3c9 063c 4a12 9bbb
00000020: 5833 413c 6a0b 27ba 3d90 41bb 6642 ab3b
00000030: 300f ca3a f4de e43b 80cc 0fbc ec7e 853a

encoder.encode_1.1.running_mean f4 [16]
-0.3511329 0.012638919 0.027188316 0.27124754 -0.29555255 0.4506609 0.018917922 0.030016588
-0.38884664 0.09235403 -0.20052172 0.14189856 0.078862734 -0.4797186 -0.170725 -0.16606666
00000000: b1c7 b3be 7813 4f3c 08ba de3c f5e0 8a3e
00000010: aa52 97be 07bd e63e c2f9 9a3c 59e5 f53c
00000020: e816 c7be 1c24 bd3d 9155 4dbe db4d 113e
00000030: c982 a13d ad9d f5be 89d2 2ebe 610d 2abe

encoder.encode_1.1.running_var f4 [16]
0.028034234 0.0039638192 0.004134601 0.00034458598 0.011226126 0.017477192 0.008146776 0.013311891
0.012229705 0.013414861 0.028052792 0.008816592 0.016716784 0.030476332 0.0024876746 0.00125005
00000000: 0da8 e53c ede2 813b 8c7b 873b 8ca9 b439
00000010: c9ed 373c 542c 8f3c 0e7a 053c 1e1a 5a3c
00000020: 1a5f 483c 01ca 5b3c f8ce e53c 7873 103c
00000030: a3f1 883c 80a9 f93c 4108 233b b8d8 a33a

encoder.encode_2.0.weight f4 [32, 16, 4]
0.101622246 0.036186766 0.0891262 -0.08717028 0.038004234 0.1368182 0.10751654 -0.02663333
0.055003624 0.10864785 0.112698294 0.07275325 0.06685427 0.0007659716 -0.0046980446 -0.03041954
-0.097867295 0.05528075 0.026208973 -0.10596151 -0.10735484 0.12288048 -0.10079185 0.13009432
0.06760333 -0.101933144 -0.07367207 -0.11668151 0.0121985795 0.0007873393 0.118848756 -0.103498854
-0.013284326 0.12761578 0.05522946 0.07597596 0.099276885 -0.05797533 -0.061027706 0.0056382786
-0.027877692 0.095529 -0.06857013 -0.10585514 -0.03703574 0.12206142 -0.060168937 0.039123185
0.014815952 0.10295664 -0.032213513 0.12483266 -0.06819488 -0.1114073 0.12662666 0.029001303
0.04098657 -0.04481977 -0.04633304 -0.065409586 -0.023388725 -0.08275477 -0.031704888 -0.11124451
0.10502169 0.0524077 -0.010646157 -0.098872334 -0.121698305 -0.113767445 0.023164947 -0.001504339
0.07335164 -0.072723955 0.071277976 0.055272806 0.015073677 -0.0694978 0.033169147 -0.092620715
-0.03422678 0.015434991 0.013208506 0.04634546 -0.0838866 -0.07775958 -0.08337701 0.06084507
-0.09231176 0.077551626 0.12226822 0.09859566 -0.06906277 -0.119303994 -0.118599966 0.060877778
0.06418778 0.02627255 -0.05110497 -0.031513415 0.026987521 0.07999308 0.06111627 0.0832872
0.07522623 0.11138567 0.06374461 -0.11147235 -0.042112887 -0.07223746 0.020471955 -0.11834013
0.088679604 0.013040944 0.013462887 0.023729464 -0.016559016 -0.090424754 -0.038584 -0.014896859
-0.09722853 -0.00427542 -0.034841646 -0.012619228 -0.00076427555 0.07229163 0.03025544 0.11676187
0.09259816 -0.054761153 0.06705447 -0.060575746 0.10405003 0.1420706 0.13142858 -0.008074837
0.08284594 -0.0007098459 -0.039112054 0.0934898 -0.056029186 -0.101277284 -0.09243503 0.11384498
0.03187148 -0.10839916 0.09630386 0.050229855 0.0705814 0.048237942 -0.035792883 -0.077301875
-0.080162264 0.104132 0.07616039 0.104916394 0.0146502815 0.08889237 -0.08055346 0.01914838
-0.09200195 -0.012503828 0.03415172 -0.08945769 0.11100252 -0.11142483 -0.072854586 -0.047821194
-0.11814477 0.114863016 -0.10433323 0.11280717 -0.05074641 0.117093995 -0.009043237 0.103014514
0.01736121 0.0055987136 0.058077704 0.08751087 0.026359534 0.011022462 -0.0027588797 0.07150071
-0.08622872 0.026057418 0.066674635 -0.07602003 -0.018737966 0.10438483 -0.09208923 -0.009419418
0.055532597 -0.075316735 -0.09230914 0.08710826 -0.033419013 -0.0864326 0.08754937 0.053192295
-0.028052436 0.062076386 0.008534044 0.036334407 0.019928206 -0.07172777 0.04575357 0.037143327
0.016426207 -0.04511062 -0.11063729 -0.09937388 0.05251385 0.07946422 0.02787078 -0.0010815996
0.081699416 0.08631247 -0.069118604 0.046474133 -0.020784538 0.083786204 -0.0063007064 -0.017338788
0.020194694 0.020303985 0.013106963 -0.07392669 -0.005862495 0.103818834 -0.08546874 0.023000823
0.05878569 -0.100591056 0.060506713 0.08465469 0.11558267 -0.0021835454 -0.10250316 -0.08493339
-0.035342928 0.107091986 -0.00037711373 0.121762596 0.0010285097 0.005692587 -0.08540809 0.008184317
-0.0871376 -0.06902813 -0.06385296 -0.019176321 -0.09962679 0.11022615 -0.023830371 0.10618441
00000000: 531f d03d 9338 143d cc87 b63d 5586 b2bd
00000010: 54aa 1b3d 121a 0c3e a231 dc3d 242e dabc
00000020: 7b4b 613d c482 de3d 5dce e63d a8ff 943d
00000030: e4ea 883d 7ccb 483a 0ef2 99bb 6632 f9bc
00000040: a66e c8bd 116e 623d 33b4 d63c 5902 d9bd
00000050: dbdc dbbd c3a8 fb3d f56b cebd 7237 053e
00000060: 9d73 8a3d 53c2 d0bd 62e1 96bd b7f6 eebd
00000070: 8ddc 473c 7265 4e3a fa66 f33d 35f7 d3bd
00000080: 80a6 59bc b6ad 023e 4938 623d 4999 9b3d
00000090: ae51 cb3d 8a77 6dbd 30f8 79bd 4fc1 b83b
000000a0: c25f e4bc b5a4 c33d 7f6e 8cbd 94ca d8bd
000000b0: cab2 17bd 56fb f93d b473 76bd a23f 203d
000000c0: 9bbe 723c eeda d23d 51f2 03bd 44a8 ff3d
000000d0: c2a9 8bbd 8329 e4bd 6baa 013e 2494 ed3c
000000e0: 89e1 273d ef94 37bd b7c7 3dbd 76f5 85bd
000000f0: b699 bfbc 557b a9bd fcdc 01bd 29d4 e3bd
00000100: 9d15 d73d 75a9 563d 386d 2ebc 947d cabd
00000110: f63c f9bd e8fe e8bd 6ac4 bd3c 3e2d c5ba
00000120: 6239 963d 4cf0 94bd 30fa 913d bd65 623d
00000130: 95f7 763c dd54 8ebd 5fdc 073d eeaf bdbd
00000140: 6131 0cbd 0be3 7c3c 7d68 583c bdd4 3d3d
00000150: bdcc abbd 6a40 9fbd 91c1 aabd ae38 793d
00000160: f30d bdbd 63d3 9e3d c367 fa3d 85ec c93d
00000170: c870 8dbd a755 f4bd 8ae4 f2bd fa5a 793d
00000180: e274 833d 8839 d73c 7253 51bd 3614 01bd
00000190: ef14 dd3c 69d3 a33d 0e55 7a3d 7b92 aa3d
000001a0: 3610 9a3d 2c1e e43d 898c 823d 9e4b e4bd
000001b0: 907e 2cbd 3cf1 93bd cdb4 a73c 4f5c f2bd
000001c0: a79d b53d afa9 553c 7193 5c3c 4b64 c23c
000001d0: c6a6 87bc 9d30 b9bd 420a 1ebd f511 74bc
000001e0: c01f c7bd d318 8cbb 1db6 0ebd e1c0 4ebc
000001f0: aa59 48ba a20d 943d 42da f73c d920 ef3d
00000200: 1ba4 bd3d 3b4d 60bd db53 893d 461e 78bd
00000210: 2f18 d53d f57a 113e 3795 063e 524c 04bc
00000220: 22ab a93d f414 3aba f633 20bd 9577 bf3d
00000230: dc7e 65bd 776a cfbd 944e bdbd 8f27 e93d
00000240: ab8b 023d 6100 debd f53a c53d d2bd 4d3d
00000250: fb8c 903d 2695 453d 8f9b 12bd 7250 9ebd
00000260: 1d2c a4bd 2843 d53d fbf9 9b3d 68de d63d
00000270: bc07 703c 340d b63d 36f9 a4bd 10dd 9c3c
00000280: 856b bcbd dbdc 4cbc ade2 0b3d 9835 b7bd
00000290: 4a55 e33d b432 e4bd c934 95bd 28e0 43bd
000002a0: e3f5 f1bd 4d3d eb3d a9ac d5bd 7207 e73d
000002b0: 78db 4fbd face ef3d 162a 14bc 46f9 d23d
000002c0: 1939 8e3c 6a75 b73b e3e2 6d3d e638 b33d
000002d0: f3ef d73c 8e97 343c 52ce 34bb f76e 923d
000002e0: af98 b0bd 5e76 d53c b68c 883d 64b0 9bbd
000002f0: 5d80 99bc b7c7 d53d 4799 bcbd e753 1abc
00000300: 2676 633d a93f 9abd 930c bdbd d165 b23d
00000310: 60e2 08bd 9303 b1bd 164d b33d 2ae0 593d
00000320: 39ce e5bc cf43 7e3d 60d2 0b3c 63d3 143d
00000330: 7a40 a33c 02e6 92bd 1868 3b3d 9a23 183d
00000340: 4190 863c eac5 38bd ce95 e2bd 8884 cbbd
00000350: c318 573d 23be a23d 4351 e43c 76c4 8dba
00000360: 0652 a73d 98c4 b03d 0e8e 8dbd a95b 3e3d
00000370: 5644 aabc 1a98 ab3d 2876 cebb 130a 8ebc
00000380: 586f a53c 8b54 a63c 96be 563c e066 97bd
00000390: 2c1a c0bb f89e d43d 3c0a afbd 396c bc3c
000003a0: 44c9 703d af02 cebd e3d5 773d 705f ad3d
000003b0: 9bb6 ec3d d019 0fbb 2ded d1bd 8ff1 adbd
000003c0: bfc3 10bd 0b53 db3d 59b7 c5b9 ab5e f93d
000003d0: 0fcf 863a e188 ba3b 70ea aebd 8317 063c
000003e0: 3375 b2bd 9f5e 8dbd 57c5 82bd a917 9dbc
000003f0: 2109 ccbd 3fbe e13d e937 c3bc 3677 d93d
